model.npy (npy, 2680 bytes, 1 tensors)

array f8 [325]
000000 ec 96 fa 5c c1 9a 83 bf 51 78 9b 4f a4 e9 61 3f
       -0.009572516107549466 0.0021866044233851763
000010 bc f1 87 e1 15 10 50 3f 99 87 51 aa cb 4c 70 3f
       0.0009803975755168079 0.003979487960437477
000020 17 ff 88 15 b7 f2 64 3f e7 14 15 d3 ed 3e 7b 3f
       0.0025571418630362486 0.006651810648070389
000030 65 ae 73 a6 c7 a3 80 3f 86 d8 7b 75 7b b3 75 3f
       0.008124885337074514 0.00529812074795733
000040 c0 d5 3b 41 ed ca 6c 3f fb f7 11 4d d7 dc 85 3f
       0.0035147317774952558 0.010675127067084835
000050 97 aa 7c a8 45 5b 92 bf 22 15 b9 ac 04 24 86 bf
       -0.017926300438527134 -0.010810886880003926
000060 3e 25 e5 9a 48 99 80 bf b8 09 f2 bd 77 f2 89 bf
       -0.008104865290664006 -0.012669501766372146
000070 7d 74 91 ca b0 b9 7d bf d2 38 40 bb a9 f6 6b 3f
       -0.007257166472382723 0.0034135165278775604
000080 cc f4 d5 7b 5c 62 68 3f 64 3e db e8 2b 26 81 3f
       0.002976589805881424 0.008373587650026333
000090 63 70 db 7c 2f e9 9d 3f 8c 3d 69 df 79 6d a2 3f
       0.029209844585111343 0.03599148609338973
0000a0 b5 69 8a 8b 8c 1f ba 3f 5d 87 9d 04 2e 3a a3 3f
       0.10204389960055134 0.03755325132693941
0000b0 d6 59 be db f6 fb ad 3f 42 6a c9 67 fa bc 9c 3f
       0.05856295998016818 0.02806464441742152
0000c0 be 02 80 07 dd 89 9b 3f 2e d3 c1 f0 0f f9 a2 3f
       0.026893094618574358 0.03705644430093567
0000d0 1b 82 39 84 fc 97 c1 3f e8 ec 22 a0 25 50 d4 3f
       0.13745075660973857 0.3173917831260966
0000e0 31 7a 31 22 27 37 a9 bf 8d ea 95 bc a5 ae 97 bf
       -0.04924890797041249 -0.023127164492942987
0000f0 5b 36 dc 4e 7e c5 a2 bf 12 f5 eb 94 c2 be 98 3f
       -0.036663004995813174 0.02416519197412465
000100 8c ad 5d e8 b3 33 aa 3f 0f ab 71 ef 36 ac 73 bf
       0.051175710787755596 -0.0048029085074670205
000110 cb 4d b2 34 61 29 9e 3f b2 7b 8a 26 5a a8 ab 3f
       0.029454726067866404 0.05401879997702198
000120 af 09 90 ae 07 83 c0 3f 4e 53 9a bf eb d0 a2 bf
       0.12899871848646913 -0.03675018991376665
000130 91 9a 70 56 eb 95 87 bf 8d 79 b3 d4 a5 bd 7a 3f
       -0.011516417098460326 0.0065285184639080176
000140 e6 74 49 60 ac 9e 7c bf 25 75 27 76 c8 a9 a9 bf
       -0.006987260193082911 -0.05012346689521
000150 57 33 9a 7d 71 5c 8a bf bf 7f 26 cd d0 3e 8e 3f
       -0.012871634145335582 0.01476824880666061
000160 6a 0c 3e 9a ec 33 ad bf eb 36 06 9d f9 4b b1 bf
       -0.057036775425353195 -0.0675655372962997
000170 9f ce 19 b7 99 20 86 bf 98 9f f3 09 c9 76 3e bf
       -0.010804367924016232 -0.00046484382796884707
000180 6a bc d2 30 59 d2 7c 3f 47 14 5d d1 a9 5a 6b 3f
       0.007036541367752761 0.003339130092089113
000190 b0 be 45 28 14 a5 72 bf 93 f6 3f 4a 65 2a 90 bf
       -0.004551962604054147 -0.01578672662434728
0001a0 2a 69 68 84 d1 74 61 3f 71 32 a3 2c 37 1f a3 3f
       0.00213089867908169 0.037347530554687654
0001b0 a5 5e 7a f4 bf 9e b7 3f 13 08 25 84 74 98 8c bf
       0.09226608008099875 -0.013962660105452362
0001c0 70 0b 14 49 f5 2c 56 bf a2 46 1c 3a 48 f7 80 3f
       -0.0013534922948685545 0.008284153245344431
0001d0 d8 4e 56 69 97 7a 83 3f bc 66 80 d6 0c 25 7b bf
       0.00951116838658754 -0.006627130649599241
0001e0 52 9a 2d 9a 17 2e 8e bf 99 61 68 ee 82 61 6b 3f
       -0.014736351387637434 0.0033423955203597086
0001f0 e0 9f 12 ca 7e dd 9b 3f 93 09 47 68 6f 5d b1 3f
       0.027212124904195778 0.06783195777737765
000200 1e 3a 03 e0 a5 10 81 3f 57 74 00 61 39 80 86 bf
       0.008332534693548384 -0.010986755631217244
000210 fa f0 ed d2 d3 f2 8c bf cb bc 72 c3 f0 5e 8f bf
       -0.014135031580501767 -0.015317803349118716
000220 ca 87 7e 63 07 55 85 bf 1f 2a 23 6e 56 5e 6d bf
       -0.0104160859335173 -0.0035850227442087014
000230 eb 1c 57 ff 1f b9 92 bf 38 c8 f1 51 78 30 97 3f
       -0.01828432079289836 0.02264583587788868
000240 81 7c 9f b1 52 62 b7 3f a9 a0 b9 2b 0b bf 72 bf
       0.0913440402650725 -0.004576724658910938
000250 e0 6a 8b 46 b5 fb 76 bf 55 3e 7d 16 10 a3 58 bf
       -0.005611141307521023 -0.0015037209613700993
000260 48 4c 30 7e 88 54 88 3f ab bb 04 c8 03 10 7c 3f
       0.011879984236690913 0.006851210375585485
000270 86 09 13 76 47 73 89 bf 57 bc 4d 63 1d 0d 83 bf
       -0.012426908770412092 -0.009302358239180615
000280 a3 2e 5e cb 21 9f 9a 3f de 0a 0a 6a af da b0 3f
       0.025997665441123485 0.06583687151764248
000290 f0 0c 29 e0 68 4e 97 3f ad 4f 0e b0 b7 9e 5d 3f
       0.022760046655332766 0.0018078607392668464
0002a0 bc b6 b5 c8 fa 0c 96 3f f6 65 e1 da 5c 0f 8b bf
       0.02153388834033508 -0.013212895803166962
0002b0 d5 61 c5 b0 3b 98 9c 3f 87 b7 d9 c7 a8 c2 ae 3f
       0.027924473442313264 0.06007888259487886
0002c0 38 1c b4 04 76 75 b5 bf 03 17 f8 72 ec ad c3 3f
       -0.08382356276352787 0.15374522794461862
0002d0 50 46 84 3a ac c7 e0 3f 6c dc b3 fe 12 b1 b1 bf
       0.5243741171745544 -0.06910818785023459
0002e0 1e 51 2a b9 a0 1b b8 bf fe af 41 4f d9 da b4 bf
       -0.0941715671600076 -0.08146436867690451
0002f0 3e d1 bd 48 fa 98 ab 3f 4c ff 72 be f0 11 b3 bf
       0.053901502017569033 -0.07449249887122028
000300 bb 08 e0 48 dd 61 a7 3f db 6e f4 3a f0 a1 7e bf
       0.04566852106656102 -0.007478655242518529
000310 b0 92 2e 93 d9 b9 c3 bf 71 57 79 55 b7 cd cb bf
       -0.15410918890588254 -0.21721545861754124
000320 45 ca 9d 03 01 8f 50 bf 24 5e 21 c4 15 c2 64 bf
       -0.0010106573012903669 -0.0025339532012756006
000330 5a 70 7f 9c 57 3b 75 bf 01 43 e8 68 da 62 81 bf
       -0.005183546287266772 -0.008489328695789224
000340 2c 71 42 fd 9b 36 7a bf 73 83 0b ca 46 2a 6a bf
       -0.006399735768493547 -0.003193987140875648
000350 d1 eb 84 90 2b f0 6f bf 32 af 3d 1d 9e be 59 bf
       -0.00389870175072591 -0.001571325691624059
000360 98 44 b5 b2 c9 e8 23 3f aa f2 71 03 78 1c a0 bf
       0.00015189611563440754 -0.031467199726625
000370 17 ab c3 97 ba 31 a6 3f 2e 42 ba da 56 90 85 bf
       0.04334815123168861 -0.010529211568866517
000380 3c 72 38 a4 8c ce 92 bf 4d 9a 49 e3 70 c6 87 bf
       -0.018366048358176665 -0.011608964859260907
000390 fe 12 4e 02 e2 43 61 3f 3b 94 fc 3a 4a 6d 74 bf
       0.0021075643766742527 -0.004987039530338906
0003a0 87 47 7e f8 3c d9 a8 3f f0 4d 27 c1 68 64 c1 3f
       0.04853239568104955 0.1358767455227361
0003b0 02 1d f3 d8 df 53 92 bf da 14 94 66 8f ae 90 bf
       -0.017898080460125428 -0.016290894161120707
0003c0 2f b2 c7 3c ba c8 8c bf 67 52 9c 36 ed d1 8e bf
       -0.014054732303486165 -0.015048840741237869
0003d0 90 b4 1b da 2f 19 60 bf be 5b f7 ae 9a c1 78 3f
       -0.0019651350602232845 0.0060440103838663144
0003e0 0d 1e 61 a4 60 63 70 3f b9 76 d7 b0 a2 dc 74 3f
       0.004001023777227453 0.005093226920022503
0003f0 a1 2f 19 94 2e 33 a0 3f ad cb d1 9a 6f ee 78 bf
       0.031640487268844504 -0.006086765247448262
000400 2f b2 31 14 f7 ee 84 3f df f9 08 cf d4 dd 6d 3f
       0.010221414855743209 0.0036458164616128687
000410 5c f8 41 ba f3 46 72 bf b1 89 f1 36 c3 04 7e bf
       -0.004462196408097165 -0.007328760678407085
000420 69 66 5a 5c 31 e7 67 3f 32 36 bc 1a b0 b7 67 3f
       0.0029178585126146584 0.0028952064075216328
000430 8f b2 24 bc d2 07 55 bf 9f 3a aa 1a aa 62 7a 3f
       -0.0012836034735058987 0.006441750020384745
000440 25 cc 2c cd 22 c1 57 3f f4 89 a9 99 56 4b 74 bf
       0.0014498557909064038 -0.004954660684776336
000450 85 85 8f d4 34 79 71 3f fc bb 21 00 bd ef 52 bf
       0.004265982025544961 -0.0011557908733512692
000460 c9 b7 0e 4c f9 85 66 3f 4e 2b a0 64 e7 ab 5c bf
       0.002749430569074261 -0.0017499694536151247
000470 3e 47 6d c7 4a 17 84 3f 99 d2 bc 8c cf 7b 81 3f
       0.009810051165604624 0.008536931498022414
000480 26 40 07 9b 81 d9 85 3f 78 dd 86 6e 9d ee 9a bf
       0.010668766540135332 -0.02630086886503366
000490 08 7b 85 4b 54 26 99 bf 2e 8d 0d 11 52 25 8c 3f
       -0.024560277089558574 0.013743058343328753
0004a0 d8 d6 4c d7 a7 c9 8a bf 79 cf 25 0d 53 fb 90 bf
       -0.013079940088214156 -0.016583726575347655
0004b0 e7 ac ef ca d2 de 99 bf e9 46 05 41 1e 78 9b bf
       -0.02526406634926284 -0.026825401991408624
0004c0 71 e5 f6 69 58 c7 a6 bf 2a d5 69 f9 8f b8 a5 bf
       -0.04448963445197308 -0.0424237243613937
0004d0 2b 12 09 9e a2 f8 7e bf de 2e 2d 46 bc 05 81 3f
       -0.007561335777215332 0.008311720744721137
0004e0 9b 23 80 01 f1 ff 3d bf 15 6f ee 4e e7 51 79 bf
       -0.00045776018078008137 -0.006181624935290638
0004f0 fe 72 db 0e e2 48 5e bf ef e7 23 28 3d e6 90 3f
       -0.0018484313581474394 0.01650329167839709
000500 ea 2d ed e3 30 92 a3 bf 6f d0 52 f2 58 51 b3 bf
       -0.038224723647171846 -0.07546001354313757
000510 13 c9 20 6b 97 12 a0 bf 2d ef 9b 72 2e 15 3d 3f
       -0.03139184172359157 0.00044376739479877713
000520 3a 27 3e 10 1f 6c 66 bf fe 2f e2 6a d7 88 60 3f
       -0.0027371031482673865 0.0020183760999028513
000530 c7 13 22 71 11 31 62 bf 9a 87 4f 2c 37 a9 61 3f
       -0.0022206631338712343 0.0021558835601220407
000540 7c 90 72 ff dc 64 5e 3f 5c 40 48 35 ba a6 74 bf
       0.0018551023656892254 -0.005041816115877475
000550 3e 3d ff dd bd 8b 80 bf 5a 79 78 dd 07 72 83 3f
       -0.008079036080657628 0.009494840093847646
000560 65 b2 6b 17 35 dd 95 bf ed 94 93 63 cf fe 85 bf
       -0.02135165172051003 -0.010739917970975255
000570 2c 3a 3e e7 1d bf 74 bf 54 e6 e0 21 29 9e 84 bf
       -0.005065075692881876 -0.010067292543783392
000580 58 bd de cc 95 b7 66 bf f5 cf 2a 6b 42 d3 7e 3f
       -0.0027730870997044015 0.007525691459409946
000590 d3 d5 7f 5e db b1 82 3f a8 26 67 74 4f 4c 99 3f
       0.009128297635451787 0.024705163459464302
0005a0 d9 a0 ee 80 7d 43 ad 3f 2a c2 f7 3f e2 e8 a1 bf
       0.057155534733569 -0.034979887302942395
0005b0 07 a7 71 60 5b 7a b8 bf 0f a4 06 d1 1e 56 a1 3f
       -0.09561701874340765 0.0338601713331813
0005c0 9a 56 2d 09 7e 73 ab bf 37 07 c2 db bf f9 b8 3f
       -0.05361551153206996 0.09756087413009316
0005d0 9c e2 5a 88 75 19 8e bf 6f 9f f5 69 5a fb ab bf
       -0.014696996902203545 -0.054652047571663746
0005e0 12 51 ed a6 59 22 22 3f 94 49 d0 c2 24 35 aa 3f
       0.0001383528173969436 0.05118670347305279
0005f0 cc 6e 60 da d5 bb 93 bf b6 2d bc 5c f8 91 b7 bf
       -0.019271222547202524 -0.09207107795753341
000600 a6 87 0a de b1 b7 c7 bf b7 be 6d b7 e1 73 c3 3f
       -0.185293420237085 0.15197392899016446
000610 cc b7 c0 d0 eb c3 d0 3f cc 60 1a 79 c3 5e bb bf
       0.26195807825103823 -0.10691472727410484
000620 0a ce 38 cd 6b 82 a9 bf be 92 c2 fe 06 ea c5 bf
       -0.04982315902853081 -0.1712044471688809
000630 fd 0e c7 9e 7c eb a7 bf 29 bf 7d 76 60 6e 80 3f
       -0.04671849668696202 0.00802302705389442
000640 e6 11 70 0b c8 bc 4d 3f 5b 29 cb c0 71 d5 83 3f
       0.0009075142651231965 0.009684456535428756
000650 74 c5 37 a5 d6 21 95 bf 4f c1 13 e6 da eb 8e 3f
       -0.020636895975206085 0.015098295351407968
000660 34 8f 79 7a 04 79 84 bf a4 ee 19 5f 65 a3 8b bf
       -0.009996447551379718 -0.013495246853600769
000670 48 b3 7f ba 0c e7 81 bf 9a 1c 60 93 12 52 8f 3f
       -0.00874147361897716 0.015293259737531085
000680 c9 09 4c 99 01 bc 70 3f 4b de 14 5c f0 56 5f bf
       0.004085546727539976 -0.0019128176939612492
000690 f2 24 4a 55 f2 34 52 3f d8 e0 89 0d f0 3d 82 bf
       0.001111256268958191 -0.008907199299969568
0006a0 b0 48 73 ed aa cc 75 3f ab b3 cb 25 3c f9 55 bf
       0.005322139440254656 -0.001341160524300759
0006b0 3d 62 5b 35 d3 8b 7b bf 39 eb de f1 da bf 84 bf
       -0.006725144417679516 -0.010131559854803395
0006c0 d1 d7 0f bc 0f fd 81 3f 9d d4 55 f6 64 a0 5d bf
       0.008783457686131787 -0.0018082605323262232
0006d0 c9 6b 2a 1e 0e e9 c7 3e 31 5f 4d 75 53 6e 5e bf
       2.8503384198025626e-06 -0.0018573584577179054
0006e0 89 d5 82 b2 d3 93 77 3f d7 9c f4 50 40 df 6c bf
       0.005756213133442664 -0.0035244232345977666
0006f0 95 e4 65 ab ba 93 5f 3f 49 c9 97 35 7e 6d 70 3f
       0.0019273112244191694 0.004010670666945445
000700 72 09 f5 cd 61 b8 77 3f 08 01 a2 dc 0d 2e 73 bf
       0.0057910747994490575 -0.004682592532958781
000710 af 89 ea 99 d5 af 1c bf 28 98 ea 32 cc 0f 21 3f
       -0.00010943165987468169 0.00013017051374680897
000720 47 0f c2 de bc 26 12 3f b7 ec d1 85 57 8e f8 be
       6.924178859618351e-05 -2.3418448439543808e-05
000730 32 2f cc 0b 76 cd 04 3f 49 4b ed 1a 77 c7 22 bf
       3.9677777271844564e-05 -0.00014327362938589886
000740 fc 45 3d f5 d0 5e 0b 3f 3c c1 ba 90 14 23 23 bf
       5.220484913926943e-05 -0.0001460039714991176
000750 ab c0 e6 c2 f5 18 25 bf ee 14 11 ce 47 f8 17 3f
       -0.00016096115127828733 9.143770468352286e-05
000760 fa a3 49 51 bb 7d ee 3e da 4c 96 c6 19 28 ea 3e
       1.4539308304155677e-05 1.2472459462375985e-05
000770 6a 65 f3 8b 68 41 22 3f a5 e9 db b8 44 35 3a bf
       0.00013927842335341038 -0.00039990356241017606
000780 43 4e f4 5a 6e 7b 1a 3f 9f 23 89 33 b4 c2 36 3f
       0.00010102139525641159 0.0003472986168487294
000790 f7 61 ec 6d 13 cd 3f bf 52 cd 38 fb 4a db 01 bf
       -0.00048524593687340696 -3.4058786152614054e-05
0007a0 54 2a a9 0b 6e 7f 4a bf 94 c9 c8 3d b7 9d 26 3f
       -0.0008086478549754286 0.000172546976402521
0007b0 a5 e5 49 aa 9c 19 5a 3f be ca 87 d2 3a e0 60 bf
       0.0015930204328057165 -0.002060046088666694
0007c0 9c 48 da ad f2 0a c7 3e a9 e9 ec 8e 15 05 71 3f
       2.746911703274225e-06 0.004155239307517191
0007d0 fd 85 c9 e5 cb a4 76 bf 8c 04 3f dd fd ad 50 bf
       -0.005528255915665079 -0.0010180453436848006
0007e0 83 45 a0 4e 6f 31 74 3f 52 33 32 36 4c 70 60 3f
       0.004929957192886805 0.002006672717078586
0007f0 f3 d6 fc af 6c e6 5a 3f 5a e7 ad 0d 70 23 47 3f
       0.0016418515587707766 0.0007061288009559783
